…
I0119 14:43:40.082928   455 net.cpp:339] The NetState phase (0) differed from the phase (1) specified by a rule in layer mnist
I0119 14:43:40.082970   455 net.cpp:339] The NetState phase (0) differed from the phase (1) specified by a rule in layer accuracy
I0119 14:43:40.083129   455 net.cpp:50] Initializing net from parameters: 
name: "LeNet"
state {
  phase: TRAIN
}
layer {
  name: "mnist"
  type: "Data"
  top: "data"
  top: "label"
  include {
    phase: TRAIN
  }
  transform_param {
    scale: 0.00390625
  }
  data_param {
    source: "/phihome/perdue/caffe/examples/mnist/mnist_train_lmdb"
    batch_size: 64
    backend: LMDB
  }
}
layer {
  name: "conv1"
  type: "Convolution"
  bottom: "data"
  top: "conv1"
  param {
    lr_mult: 1
  }
  param {
    lr_mult: 2
  }
  convolution_param {
    num_output: 20
    kernel_size: 5
    stride: 1
    weight_filler {
      type: "xavier"
    }
    bias_filler {
      type: "constant"
    }
  }
}
layer {
  name: "pool1"
  type: "Pooling"
  bottom: "conv1"
  top: "pool1"
  pooling_param {
    pool: MAX
    kernel_size: 2
    stride: 2
  }
}
layer {
  name: "conv2"
  type: "Convolution"
  bottom: "pool1"
  top: "conv2"
  param {
    lr_mult: 1
  }
  param {
    lr_mult: 2
  }
  convolution_param {
    num_output: 50
    kernel_size: 5
    stride: 1
    weight_filler {
      type: "xavier"
    }
    bias_filler {
      type: "constant"
    }
  }
}
layer {
  name: "pool2"
  type: "Pooling"
  bottom: "conv2"
  top: "pool2"
  pooling_param {
    pool: MAX
    kernel_size: 2
    stride: 2
  }
}
layer {
  name: "ip1"
  type: "InnerProduct"
  bottom: "pool2"
  top: "ip1"
  param {
    lr_mult: 1
  }
  param {
    lr_mult: 2
  }
  inner_product_param {
    num_output: 500
    weight_filler {
      type: "xavier"
    }
    bias_filler {
      type: "constant"
    }
  }
}
layer {
  name: "relu1"
  type: "ReLU"
  bottom: "ip1"
  top: "ip1"
}
layer {
  name: "ip2"
  type: "InnerProduct"
  bottom: "ip1"
  top: "ip2"
  param {
    lr_mult: 1
  }
  param {
    lr_mult: 2
  }
  inner_product_param {
    num_output: 10
    weight_filler {
      type: "xavier"
    }
    bias_filler {
      type: "constant"
    }
  }
}
layer {
  name: "loss"
  type: "SoftmaxWithLoss"
  bottom: "ip2"
  bottom: "label"
  top: "loss"
}
I0119 14:43:40.083266   455 layer_factory.hpp:76] Creating layer mnist
I0119 14:43:40.084290   455 net.cpp:110] Creating Layer mnist
I0119 14:43:40.084316   455 net.cpp:433] mnist -> data
I0119 14:43:40.084406   455 net.cpp:433] mnist -> label
I0119 14:43:40.248437   457 db_lmdb.cpp:22] Opened lmdb /phihome/perdue/caffe/examples/mnist/mnist_train_lmdb
I0119 14:43:40.252151   455 data_layer.cpp:44] output data size: 64,1,28,28
I0119 14:43:40.306442   455 net.cpp:155] Setting up mnist
I0119 14:43:40.306529   455 net.cpp:163] Top shape: 64 1 28 28 (50176)
I0119 14:43:40.306543   455 net.cpp:163] Top shape: 64 (64)
I0119 14:43:40.306556   455 layer_factory.hpp:76] Creating layer conv1
I0119 14:43:40.306587   455 net.cpp:110] Creating Layer conv1
I0119 14:43:40.306599   455 net.cpp:477] conv1 <- data
I0119 14:43:40.306627   455 net.cpp:433] conv1 -> conv1
I0119 14:43:40.499729   455 net.cpp:155] Setting up conv1
I0119 14:43:40.499830   455 net.cpp:163] Top shape: 64 20 24 24 (737280)
I0119 14:43:40.499864   455 layer_factory.hpp:76] Creating layer pool1
I0119 14:43:40.499898   455 net.cpp:110] Creating Layer pool1
I0119 14:43:40.499909   455 net.cpp:477] pool1 <- conv1
I0119 14:43:40.499922   455 net.cpp:433] pool1 -> pool1
I0119 14:43:40.500951   455 net.cpp:155] Setting up pool1
I0119 14:43:40.500994   455 net.cpp:163] Top shape: 64 20 12 12 (184320)
I0119 14:43:40.501003   455 layer_factory.hpp:76] Creating layer conv2
I0119 14:43:40.501021   455 net.cpp:110] Creating Layer conv2
I0119 14:43:40.501030   455 net.cpp:477] conv2 <- pool1
I0119 14:43:40.501044   455 net.cpp:433] conv2 -> conv2
I0119 14:43:40.504288   455 net.cpp:155] Setting up conv2
I0119 14:43:40.504312   455 net.cpp:163] Top shape: 64 50 8 8 (204800)
I0119 14:43:40.504329   455 layer_factory.hpp:76] Creating layer pool2
I0119 14:43:40.504354   455 net.cpp:110] Creating Layer pool2
I0119 14:43:40.504364   455 net.cpp:477] pool2 <- conv2
I0119 14:43:40.504374   455 net.cpp:433] pool2 -> pool2
I0119 14:43:40.505517   455 net.cpp:155] Setting up pool2
I0119 14:43:40.505537   455 net.cpp:163] Top shape: 64 50 4 4 (51200)
I0119 14:43:40.505548   455 layer_factory.hpp:76] Creating layer ip1
I0119 14:43:40.505565   455 net.cpp:110] Creating Layer ip1
I0119 14:43:40.505573   455 net.cpp:477] ip1 <- pool2
I0119 14:43:40.505589   455 net.cpp:433] ip1 -> ip1
I0119 14:43:40.510686   455 net.cpp:155] Setting up ip1
I0119 14:43:40.510709   455 net.cpp:163] Top shape: 64 500 (32000)
I0119 14:43:40.510725   455 layer_factory.hpp:76] Creating layer relu1
I0119 14:43:40.510741   455 net.cpp:110] Creating Layer relu1
I0119 14:43:40.510749   455 net.cpp:477] relu1 <- ip1
I0119 14:43:40.510759   455 net.cpp:419] relu1 -> ip1 (in-place)
I0119 14:43:40.511771   455 net.cpp:155] Setting up relu1
I0119 14:43:40.511792   455 net.cpp:163] Top shape: 64 500 (32000)
I0119 14:43:40.511801   455 layer_factory.hpp:76] Creating layer ip2
I0119 14:43:40.511818   455 net.cpp:110] Creating Layer ip2
I0119 14:43:40.511827   455 net.cpp:477] ip2 <- ip1
I0119 14:43:40.511842   455 net.cpp:433] ip2 -> ip2
I0119 14:43:40.512811   455 net.cpp:155] Setting up ip2
I0119 14:43:40.512831   455 net.cpp:163] Top shape: 64 10 (640)
I0119 14:43:40.512845   455 layer_factory.hpp:76] Creating layer loss
I0119 14:43:40.512866   455 net.cpp:110] Creating Layer loss
I0119 14:43:40.512874   455 net.cpp:477] loss <- ip2
I0119 14:43:40.512883   455 net.cpp:477] loss <- label
I0119 14:43:40.512897   455 net.cpp:433] loss -> loss
I0119 14:43:40.512919   455 layer_factory.hpp:76] Creating layer loss
I0119 14:43:40.514005   455 net.cpp:155] Setting up loss
…
I0119 14:43:40.515075   455 solver.cpp:186] Creating test net (#0) specified by net file: /phihome/perdue/caffe/examples/mnist/lenet_train_test.prototxt
I0119 14:43:40.515130   455 net.cpp:339] The NetState phase (1) differed from the phase (0) specified by a rule in layer mnist
I0119 14:43:40.515303   455 net.cpp:50] Initializing net from parameters: 
name: "LeNet"
state {
  phase: TEST
}
layer {
  name: "mnist"
  type: "Data"
  top: "data"
  top: "label"
  include {
    phase: TEST
  }
  transform_param {
    scale: 0.00390625
  }
  data_param {
    source: "/phihome/perdue/caffe/examples/mnist/mnist_test_lmdb"
    batch_size: 100
    backend: LMDB
  }
}
layer {
  name: "conv1"
  type: "Convolution"
  bottom: "data"
  top: "conv1"
  param {
    lr_mult: 1
  }
  param {
    lr_mult: 2
  }
  convolution_param {
    num_output: 20
    kernel_size: 5
    stride: 1
    weight_filler {
      type: "xavier"
    }
    bias_filler {
      type: "constant"
    }
  }
}
layer {
  name: "pool1"
  type: "Pooling"
  bottom: "conv1"
  top: "pool1"
  pooling_param {
    pool: MAX
    kernel_size: 2
    stride: 2
  }
}
layer {
  name: "conv2"
  type: "Convolution"
  bottom: "pool1"
  top: "conv2"
  param {
    lr_mult: 1
  }
  param {
    lr_mult: 2
  }
  convolution_param {
    num_output: 50
    kernel_size: 5
    stride: 1
    weight_filler {
      type: "xavier"
    }
    bias_filler {
      type: "constant"
    }
  }
}
layer {
  name: "pool2"
  type: "Pooling"
  bottom: "conv2"
  top: "pool2"
  pooling_param {
    pool: MAX
    kernel_size: 2
    stride: 2
  }
}
layer {
  name: "ip1"
  type: "InnerProduct"
  bottom: "pool2"
  top: "ip1"
  param {
    lr_mult: 1
  }
  param {
    lr_mult: 2
  }
  inner_product_param {
    num_output: 500
    weight_filler {
      type: "xavier"
    }
    bias_filler {
      type: "constant"
    }
  }
}
layer {
  name: "relu1"
  type: "ReLU"
  bottom: "ip1"
  top: "ip1"
}
layer {
  name: "ip2"
  type: "InnerProduct"
  bottom: "ip1"
  top: "ip2"
  param {
    lr_mult: 1
  }
  param {
    lr_mult: 2
  }
  inner_product_param {
    num_output: 10
    weight_filler {
      type: "xavier"
    }
    bias_filler {
      type: "constant"
    }
  }
}
layer {
  name: "accuracy"
  type: "Accuracy"
  bottom: "ip2"
  bottom: "label"
  top: "accuracy"
  include {
    phase: TEST
  }
}
layer {
  name: "loss"
  type: "SoftmaxWithLoss"
  bottom: "ip2"
  bottom: "label"
  top: "loss"
}
I0119 14:43:40.515457   455 layer_factory.hpp:76] Creating layer mnist
I0119 14:43:40.515666   455 net.cpp:110] Creating Layer mnist
I0119 14:43:40.515687   455 net.cpp:433] mnist -> data
I0119 14:43:40.515705   455 net.cpp:433] mnist -> label
I0119 14:43:40.573467   459 db_lmdb.cpp:22] Opened lmdb /phihome/perdue/caffe/examples/mnist/mnist_test_lmdb
I0119 14:43:40.588971   455 data_layer.cpp:44] output data size: 100,1,28,28
I0119 14:43:40.590951   455 net.cpp:155] Setting up mnist
I0119 14:43:40.590976   455 net.cpp:163] Top shape: 100 1 28 28 (78400)
I0119 14:43:40.590988   455 net.cpp:163] Top shape: 100 (100)
I0119 14:43:40.590997   455 layer_factory.hpp:76] Creating layer label_mnist_1_split
I0119 14:43:40.591028   455 net.cpp:110] Creating Layer label_mnist_1_split
I0119 14:43:40.591042   455 net.cpp:477] label_mnist_1_split <- label
I0119 14:43:40.591056   455 net.cpp:433] label_mnist_1_split -> label_mnist_1_split_0
I0119 14:43:40.591071   455 net.cpp:433] label_mnist_1_split -> label_mnist_1_split_1
I0119 14:43:40.591085   455 net.cpp:155] Setting up label_mnist_1_split
I0119 14:43:40.591096   455 net.cpp:163] Top shape: 100 (100)
I0119 14:43:40.591105   455 net.cpp:163] Top shape: 100 (100)
I0119 14:43:40.591114   455 layer_factory.hpp:76] Creating layer conv1
I0119 14:43:40.591126   455 net.cpp:110] Creating Layer conv1
I0119 14:43:40.591135   455 net.cpp:477] conv1 <- data
I0119 14:43:40.591145   455 net.cpp:433] conv1 -> conv1
I0119 14:43:40.593963   460 blocking_queue.cpp:50] Waiting for data
I0119 14:43:40.595087   455 net.cpp:155] Setting up conv1
I0119 14:43:40.595118   455 net.cpp:163] Top shape: 100 20 24 24 (1152000)
I0119 14:43:40.595139   455 layer_factory.hpp:76] Creating layer pool1
I0119 14:43:40.595156   455 net.cpp:110] Creating Layer pool1
I0119 14:43:40.595165   455 net.cpp:477] pool1 <- conv1
I0119 14:43:40.595176   455 net.cpp:433] pool1 -> pool1
I0119 14:43:40.596333   455 net.cpp:155] Setting up pool1
I0119 14:43:40.596359   455 net.cpp:163] Top shape: 100 20 12 12 (288000)
I0119 14:43:40.596388   455 layer_factory.hpp:76] Creating layer conv2
I0119 14:43:40.596416   455 net.cpp:110] Creating Layer conv2
I0119 14:43:40.596426   455 net.cpp:477] conv2 <- pool1
I0119 14:43:40.596441   455 net.cpp:433] conv2 -> conv2
I0119 14:43:40.599839   455 net.cpp:155] Setting up conv2
I0119 14:43:40.599861   455 net.cpp:163] Top shape: 100 50 8 8 (320000)
I0119 14:43:40.599901   455 layer_factory.hpp:76] Creating layer pool2
I0119 14:43:40.599915   455 net.cpp:110] Creating Layer pool2
I0119 14:43:40.599925   455 net.cpp:477] pool2 <- conv2
I0119 14:43:40.599936   455 net.cpp:433] pool2 -> pool2
I0119 14:43:40.600980   455 net.cpp:155] Setting up pool2
I0119 14:43:40.601001   455 net.cpp:163] Top shape: 100 50 4 4 (80000)
I0119 14:43:40.601011   455 layer_factory.hpp:76] Creating layer ip1
I0119 14:43:40.601024   455 net.cpp:110] Creating Layer ip1
I0119 14:43:40.601032   455 net.cpp:477] ip1 <- pool2
I0119 14:43:40.601047   455 net.cpp:433] ip1 -> ip1
I0119 14:43:40.606226   455 net.cpp:155] Setting up ip1
I0119 14:43:40.606253   455 net.cpp:163] Top shape: 100 500 (50000)
I0119 14:43:40.606271   455 layer_factory.hpp:76] Creating layer relu1
I0119 14:43:40.606283   455 net.cpp:110] Creating Layer relu1
I0119 14:43:40.606292   455 net.cpp:477] relu1 <- ip1
I0119 14:43:40.606304   455 net.cpp:419] relu1 -> ip1 (in-place)
I0119 14:43:40.607341   455 net.cpp:155] Setting up relu1
I0119 14:43:40.607363   455 net.cpp:163] Top shape: 100 500 (50000)
I0119 14:43:40.607373   455 layer_factory.hpp:76] Creating layer ip2
I0119 14:43:40.607400   455 net.cpp:110] Creating Layer ip2
I0119 14:43:40.607409   455 net.cpp:477] ip2 <- ip1
I0119 14:43:40.607424   455 net.cpp:433] ip2 -> ip2
I0119 14:43:40.607569   455 net.cpp:155] Setting up ip2
I0119 14:43:40.607585   455 net.cpp:163] Top shape: 100 10 (1000)
I0119 14:43:40.607597   455 layer_factory.hpp:76] Creating layer ip2_ip2_0_split
I0119 14:43:40.607609   455 net.cpp:110] Creating Layer ip2_ip2_0_split
I0119 14:43:40.607617   455 net.cpp:477] ip2_ip2_0_split <- ip2
I0119 14:43:40.607630   455 net.cpp:433] ip2_ip2_0_split -> ip2_ip2_0_split_0
I0119 14:43:40.607642   455 net.cpp:433] ip2_ip2_0_split -> ip2_ip2_0_split_1
I0119 14:43:40.607656   455 net.cpp:155] Setting up ip2_ip2_0_split
I0119 14:43:40.607668   455 net.cpp:163] Top shape: 100 10 (1000)
I0119 14:43:40.607677   455 net.cpp:163] Top shape: 100 10 (1000)
I0119 14:43:40.607686   455 layer_factory.hpp:76] Creating layer accuracy
I0119 14:43:40.607700   455 net.cpp:110] Creating Layer accuracy
I0119 14:43:40.607708   455 net.cpp:477] accuracy <- ip2_ip2_0_split_0
I0119 14:43:40.607717   455 net.cpp:477] accuracy <- label_mnist_1_split_0
I0119 14:43:40.607728   455 net.cpp:433] accuracy -> accuracy
I0119 14:43:40.607743   455 net.cpp:155] Setting up accuracy
…
